ndk/examples/lenet5_model.npz (npz, 249274 bytes, 10 tensors)

conv1/conv_weight f4 [6, 1, 5, 5]
0.03331202 0.26025397 0.40700197 0.19177149 0.22280921 -0.26395425 -0.029926846 0.23519874
0.3547673 0.12610659 -0.52124655 -0.55622727 -0.3116423 -0.087899834 -0.22080645 -0.15941806
-0.44147083 -0.68392146 -0.79860556 -0.37986642 0.13899934 0.15682666 0.1586933 0.2226285
0.2698654 0.1655014 0.30659413 0.37003937 0.35770267 0.25782987 -0.053625986 -0.061903097
0.23606434 0.25967464 0.26971272 -0.32400528 -0.08295235 -0.09643826 0.23396297 0.2254735
-0.37694645 -0.31396663 -0.052719325 -0.0054558204 0.2903034 -0.2480585 -0.26035854 0.010118831
0.0063772863 0.20943645 0.11253242 0.17835724 0.34286737 0.19857883 -0.05940076 -0.16349936
0.32917586 0.3819947 0.47638726 0.33371797 -0.032204464 0.11361092 0.3543843 0.2466352
0.14897548 0.028471118 0.22711653 0.17500353 0.16669528 -0.19364181 -0.025859559 0.094419494
0.011161185 -0.0842264 -0.14485386 -0.18355355 0.2280145 0.08933976 0.2806993 0.26866215
-0.20706932 -0.20860949 -0.094366096 0.19557905 0.37043685 -0.007556333 -0.278259 0.001821179
0.31113416 0.22716032 0.13954982 0.23664892 0.1134113 0.24439843 0.26317424 0.092470236
0.095325254 0.23711108 0.26816136 0.20608011 0.19006047 0.51354915 0.28589463 0.24707457
0.11057467 0.21315648 0.2635326 0.03805355 -0.0349018 -0.09919843 0.2652353 -0.001987423
-0.33689106 -0.41214 -0.23701021 0.010184394 -0.053008262 -0.22368355 -0.10433513 0.11289536
-0.22039072 0.048997942 0.15105082 0.2541203 0.08905248 0.044847745 0.16192545 0.02707507
0.20884503 0.28282443 0.26105535 0.5128752 0.47124115 0.27374578 0.32925853 -0.011141448
-0.013908744 0.10277125 0.17177118 0.079690464 -0.013829296 -0.22882414 -0.43961653 -0.30012068
-0.1721165 -0.2143629 -0.28941116 -0.26360083 -0.20339285 -0.14656578
00000000: 2f72 083d 0240 853e 9062 d03e bf5f 443e
00000010: 1928 643e 0325 87be 2529 f5bc f0d7 703e
00000020: 0fa4 b53e 1622 013e 6a70 05bf e964 0ebf
00000030: 948f 9fbe d404 b4bd 161b 62be 7d3e 23be
00000040: 7708 e2be 7a15 2fbf 6a71 4cbf da7d c2be
00000050: d855 0e3e 2b97 203e 7f80 223e baf8 633e
00000060: cc2b 8a3e 3379 293e e8f9 9c3e cd75 bd3e
00000070: ce24 b73e 4702 843e eca6 5bbd 1a8e 7dbd
00000080: daba 713e 13f4 843e c917 8a3e 05e4 a5be
00000090: ece2 a9bd 6c81 c5bd fd93 6f3e 86e2 663e
000000a0: 20ff c0be 3cc0 a0be 38f0 57bd bdc6 b2bb
000000b0: a6a2 943e 0c03 7ebe b74d 85be 74c9 253c
000000c0: 8ef8 d03b 8276 563e 6677 e63d 48a3 363e
000000d0: 508c af3e 4058 4b3e 364e 73bd 606c 27be
000000e0: bd89 a83e cf94 c33e 08e9 f33e 15dd aa3e
000000f0: d4e8 03bd d8ac e83d dc71 b53e f08d 7c3e
00000100: 078d 183e 433c e93c 3c91 683e 2034 333e
00000110: 2bb2 2a3e 0a4a 46be 6dd7 d3bc 025f c13d
00000120: 67dd 363c e47e acbd 9254 14be 76f5 3bbe
00000130: a27c 693e c4f7 b63d d2b7 8f3e 168e 893e
00000140: fb09 54be ba9d 55be 0343 c1bd e045 483e
00000150: e6a9 bd3e 1e9b f7bb f777 8ebe a0b4 ee3a
00000160: fa4c 9f3e b79c 683e 26e6 0e3e 1854 723e
00000170: 2f44 e83d 9543 7a3e c6be 863e 0961 bd3d
00000180: e339 c33d 3fcd 723e 724c 893e aa06 533e
00000190: 369f 423e f577 033f c860 923e 1e01 7d3e
000001a0: f974 e23d b145 5a3e bfed 863e 0ade 1b3d
000001b0: 31f5 0ebd 8c28 cbbd eccc 873e 6d3f 02bb
000001c0: fc7c acbe 0404 d3be ceb2 72be 72dc 263c
000001d0: 311f 59bd 4d0d 65be a8ad d5bd af35 e73d
000001e0: 1bae 61be 11b2 483d 11ad 1a3e 0e1c 823e
000001f0: 2661 b63d 45b2 373d c9cf 253e 8acc dd3c
00000200: 79db 553e 5dce 903e 0ca9 853e ca4b 033f
00000210: 8546 f13e 6828 8c3e 9394 a83e 9f8a 36bc
00000220: 80e1 63bc bc79 d23d c9e4 2f3e c134 a33d
00000230: 4694 62bc e050 6abe 6b15 e1be 6ba9 99be
00000240: 4f3f 30be f381 5bbe b32d 94be b0f6 86be
00000250: 3746 50be 5715 16be

conv1/conv_bias f4 [6]
0.1507686 0.111770585 -0.015115714 0.014713942 0.041467577 0.085190274
00000000: 1563 1a3e fae7 e43d e6a7 77bc bf12 713c
00000010: e8d9 293d 3d78 ae3d

conv2/conv_weight f4 [16, 6, 5, 5]
0.10521706 0.07060411 -0.34110382 -0.015946612 -0.12622619 0.05548571 -0.020547077 -0.14531597
-0.23790605 -0.073261544 0.033529803 0.116389126 -0.043207772 -0.074699864 0.019290866 0.08620443
0.009424967 0.2714377 0.28808632 0.102087036 -0.079812124 -0.031949744 -0.03650754 -0.0012985863
0.10974332 0.10342468 0.19840838 0.22175825 0.0004654247 -0.08081088 0.015555848 0.16843545
0.090125374 0.06978641 -0.041412175 -0.0939456 -0.012934071 0.11439345 0.052192103 -0.0014164378
0.036496226 -0.22276103 0.016059343 0.037444025 0.34965074 -0.23228253 0.039737985 0.025534213
0.23977695 0.0024811195 0.0029861457 0.23700815 0.008588153 -0.0014014454 -0.04403529 -0.024946619
0.043645184 0.008818633 0.056948278 -0.051419616 -0.08982699 -0.15243675 0.13903858 0.21106166
0.059867237 -0.11430332 -0.049727503 -0.016624657 0.07885953 -0.059437532 -0.10416453 -0.062393814
-0.060440242 -0.07105857 0.120265074 -0.027194828 0.021651763 0.19467244 0.08300083 -0.1388303
-0.07520759 0.04905321 0.17936781 0.11540305 -0.11854685 0.0052265 -0.06328987 -0.06083741
0.011004031 0.05224947 -0.009756518 -0.0564825 -0.1563347 -0.022970006 -0.005992284 -0.010836658
-0.2570521 -0.094380885 -0.15956445 0.01088491 0.012919826 0.11220191 0.0450457 0.10084233
-0.05866016 0.026118256 0.056590505 -0.10740136 0.22531587 0.11879243 0.018970514 0.10430707
-0.036965623 -0.0073888605 0.049511053 0.09235914 0.14304104 -0.30509892 -0.084163085 -0.06785808
0.055531073 -0.06459871 -0.096875325 -0.07338325 0.1293026 0.055333648 -0.020143451 -0.12798356
-0.22304542 -0.081662655 -0.11790422 -0.055387888 -0.10766535 -0.13015033 0.04634653 0.058766842
0.121244736 -0.028119648 0.022163901 0.054129418 -0.07156706 -0.13231517 -0.094520085 0.17520422
0.1269436 0.055914078 -0.06733872 -0.015678763 0.2099394 0.04513967 -0.18406671 0.10681809
0.044787508 0.33683684 0.12215397 0.20403577 0.23080009 0.045984097 0.0012277635 -0.031636763
-0.1342537 0.097859725 -0.18433772 0.047323566 0.07147981 -0.047928747 0.13605788 0.03670416
-0.13853888 -0.1753612 0.21229808 0.12300722 -0.2606712 -0.3051012 -0.04580147 0.0046855314
0.087565035 -0.025532011 0.12501296 0.16980366 -0.07322641 -0.024267396 0.24865685 0.023823896
-0.009122167 -0.08814106 -0.18400867 0.029937625 0.18746907 0.19052278 0.09537217 -0.04842392
-0.111853674 -0.06481882 -0.025773127 0.0005165452 -0.013274951 0.13132207 -0.107122004 -0.13659789
0.028583672 0.18779553 0.045239665 -0.0985644 0.13096683 -0.06221404 0.16256315 -0.07793777
0.20376217 0.05949601 -0.062402956 -0.08905034 -0.052745957 0.098248385 -0.12888356 -0.12389582
-0.1541447 0.056019906 -0.00027002537 0.13812609 0.036889184 -0.0956153 -0.14746411 0.102263734
0.013543382 -0.025504205 -0.13457903 0.10535585 0.014656594 -0.023760328 -0.09540198 -0.008912043
0.037500843 -0.20261909 0.05697209 0.010638395 -0.007324479 0.04461655 -0.10765191 -0.02280968
-0.02400449 -0.10364894 -0.15299805 0.23758683 0.1146821 -0.15534419 -0.016381895 0.27763772
0.15215245 -0.067571044 -0.10601091 0.08644712 0.0595262 -0.02632839 0.035295125 0.06906311
00000000: 0b7c d73d e398 903d 29a5 aebe 78a2 82bc
00000010: 7041 01be fc44 633d 5852 a8bc b6cd 14be
00000020: a59d 73be 260a 96bd 8c56 093d 6c5d ee3d
00000030: a2fa 30bd 3efc 98bd e107 9e3c f38b b03d
00000040: 2d6b 1a3c e2f9 8a3e 0d80 933e 0213 d13d
00000050: 8a74 a3bd bcdd 02bd ee88 15bd 5335 aaba
00000060: 1bc1 e03d 52d0 d33d 912b 4b3e 9814 633e
00000070: 3f04 f439 2d80 a5bd f5dd 7e3c 587a 2c3e
00000080: a793 b83d 2dec 8e3d d09f 29bd 8d66 c0bd
00000090: 6de9 53bc 1d47 ea3d 63c7 553d c4a7 b9ba
000000a0: 117d 153d 781b 64be e28e 833c e85e 193d
000000b0: 6c05 b33e 79db 6dbe 4cc4 223d 202d d13c
000000c0: 1788 753e 479a 223b 36b3 433b 44b2 723e
000000d0: 53b5 0c3c b4b0 b7ba 595e 34bd da5c ccbc
000000e0: 4bc5 323d 077c 103c 9942 693d 609d 52bd
000000f0: 37f7 b7bd 6118 1cbe 2160 0e3e 8c20 583e
00000100: 5937 753d dc17 eabd 11af 4bbd 6f30 88bc
00000110: 1b81 a13d c574 73bd 3754 d5bd a890 7fbd
00000120: 3090 77bd 2887 91bd 894d f63d b0c7 debc
00000130: 0a5f b13c 3658 473e 57fc a93d 8829 0ebe
00000140: 7006 9abd 05ec 483d 32ac 373e 6f58 ec3d
00000150: b1c8 f2bd 0f43 ab3b 1f9e 81bd a630 79bd
00000160: 404a 343c 8a03 563d cdd9 1fbc 325a 67bd
00000170: 3416 20be 982b bcbc ec5a c4bb 3d8c 31bc
00000180: 559c 83be c44a c1bd dd64 23be 9f56 323c
00000190: aead 533c 1dca e53d d781 383d 6c86 ce3d
000001a0: a345 70bd f4f5 d53c 72cb 673d 3ff5 dbbd
000001b0: 34b9 663e 7249 f33d 0d68 9b3c f29e d53d
000001c0: 4469 17bd 411e f2bb 1acc 4a3d ca26 bd3d
000001d0: 5a79 123e ed35 9cbe b25d acbd 2df9 8abd
000001e0: 8d74 633d 544c 84bd 9266 c6bd f549 96bd
000001f0: e767 043e 89a5 623d e103 a5bc 1f0e 03be
00000200: 0566 64be c03e a7bd c577 f1bd 69de 62bd
00000210: a77f dcbd 2146 05be dcd5 3d3d 80b5 703d
00000220: 294f f83d 2d5b e6bc 1291 b53c cfb6 5d3d
00000230: c091 92bd a17d 07be bf93 c1bd bc68 333e
00000240: 81fd 013e 2906 653d e2e8 89bd c070 80bc
00000250: 5bfa 563e 60e4 383d fc7b 3cbe 71c3 da3d
00000260: 1b73 373d e175 ac3e dc2b fa3d c1ee 503e
00000270: dc56 6c3e d259 3c3d e8ec a03a 8d95 01bd
00000280: cd79 09be ae6a c83d 07c3 3cbe 5bd6 413d
00000290: 0264 923d ef50 44bd c252 0b3e 1a57 163d
000002a0: 23dd 0dbe e391 33be ab64 593e 36eb fb3d
000002b0: b276 85be 3936 9cbe 529a 3bbd 1689 993b
000002c0: 4c55 b33d 8228 d1bc 6603 003e 03e1 2d3e
000002d0: baf7 95bd 6bcc c6bc e79f 7e3e 552a c33c
000002e0: 2475 15bc 4d83 b4bd c56c 3cbe c03f f53c
000002f0: e4f7 3f3e 6718 433e 7c52 c33d 2958 46bd
00000300: 8a13 e5bd bbbf 84bd 2a22 d3bc c368 073a
00000310: 2e7f 59bc 4b79 063e c862 dbbd 51e0 0bbe
00000320: 4e28 ea3c 794d 403e 3a4d 393d 22dc c9bd
00000330: 2b1c 063e 26d4 7ebd f476 263e d69d 9fbd
00000340: 08a7 503e 17b2 733d 3e9a 7fbd 0660 b6bd
00000350: 250c 58bd 7336 c93d 0dfa 03be 17bd fdbd
00000360: 1cd8 1dbe 2175 653d 3192 8db9 ed70 0d3e
00000370: 1d19 173d f4d1 c3bd d500 17be a66f d13d
00000380: 10e5 5d3c 32ee d0bc 16cf 09be cfc4 d73d
00000390: 3622 703c 05a5 c2bc 1d62 c3bd d103 12bc
000003a0: 7c9a 193d 617b 4fbe 915b 693d aa4c 2e3c
000003b0: 2f02 f0bb d8bf 363d 9b78 dcbd 5edb babc
000003c0: 10a5 c4bc e545 d4bd 85ab 1cbe f649 733e
000003d0: 73de ea3d 8c12 1fbe 5333 86bc 8826 8e3e
000003e0: dacd 1b3e b062 8abd 3f1c d9bd 300b b13d
000003f0: bfd1 733d a3ae d7bc 9f91 103d f670 8d3d

conv2/conv_bias f4 [16]
0.07720928 0.0365269 0.075360954 0.086963795 0.03216492 0.059979744 0.12134288 0.1603356
0.013579484 0.14733128 0.035195146 -0.05795646 0.10216774 0.13912304 0.019364484 0.10023617
00000000: e61f 9e3d 3b9d 153d d856 9a3d 131a b23d
00000010: 5dbf 033d 52ad 753d 9e82 f83d 042f 243e
00000020: 7c7c 5e3c 03de 163e c928 103d c163 6dbd
00000030: 523d d13d 4576 0e3e 44a2 9e3c 9f48 cd3d

fc1/dense_weight f4 [120, 16, 5, 5]
-0.09142224 0.007780607 0.24306428 0.0038617426 0.028259657 0.009404446 -0.07210139 -0.11689887
-0.1342365 0.07411904 0.019893302 -0.08918497 -0.08241349 0.12314075 0.049853876 -0.08635731
0.01497237 0.027794534 0.022106608 0.15339373 -0.1459827 -0.012450059 -0.061099228 0.14558993
-0.13011421 -0.14386052 -0.08379631 0.21545029 0.055972945 0.06966456 -0.038797032 -0.0115012275
0.11272494 0.041860014 0.011541271 0.085884824 -0.1951039 -0.10405627 -0.116800904 0.10379408
-0.011700473 0.08021771 -0.11853508 0.026421119 0.009208457 0.0031934297 -0.077575676 0.11661604
0.1360969 -0.035589784 0.051171236 -0.17046914 0.060073245 0.08309202 -0.11374014 -0.14284074
-0.099232666 0.03638799 -0.0060178004 0.051425207 0.11554821 0.03592355 -0.044334188 -0.12595938
0.052493297 0.037302554 -0.0033942081 -0.09547408 -0.14101778 -0.031868372 -0.07860515 -0.03715525
0.038636234 -0.0091348225 -0.081471816 -0.22947302 -0.04385662 0.09312321 -0.17899941 -0.07540684
-0.037389506 0.036896806 -0.111479566 0.06619193 0.1022631 0.11160485 -0.17791365 -0.014465448
-0.036764465 -0.02656598 -0.18331055 0.029853627 0.08083218 -0.02905843 -0.05038003 -0.059071925
0.031932626 -0.16213807 -0.18201238 0.02834361 -0.079350345 -0.30545706 0.021103546 0.07166951
0.20589337 -0.13130276 -0.123607665 0.0877992 -0.037605576 0.19818343 0.009258162 0.032405317
0.1040279 -0.057794575 -0.14265577 -0.20318535 -0.16977847 -0.077202775 0.21798307 -0.14939258
-0.174517 0.085445054 -0.04354521 -0.03507946 -0.19115241 0.00985982 -0.0966462 -0.13476066
0.0040325485 0.1024352 -0.011833594 0.045613945 0.045344595 0.16021644 -0.09024598 -0.08265024
-0.036679257 0.06012713 -0.0074368543 0.058624092 -0.28130993 -0.07692936 -0.064062536 -0.085034736
-0.002671685 -0.08289052 -0.13692005 -0.18382213 -0.01715981 0.042762823 -0.025084985 0.19263548
0.09687581 0.08511331 -0.048551828 0.12538578 -0.20640495 0.08355008 0.049769394 -0.061048765
0.08134882 0.12827083 0.015642095 -0.1088637 0.16912167 0.023763653 0.016021883 0.038364142
0.02851333 0.041742913 0.15565391 0.14877927 -0.05036047 0.028111795 -0.15608339 -0.14439085
-0.21059029 -0.1174385 -0.07602346 -0.065097295 0.038393665 -0.14001055 0.22968197 -0.029341023
0.035159234 -0.042353943 -0.12229693 0.025295425 0.003923396 0.15428762 -0.16767073 -0.13174774
0.15862189 -0.039608553 -0.22544658 -0.19867155 0.16573872 0.16546543 -0.084281296 -0.07544166
0.057263166 0.06466444 0.20227762 -0.021766193 0.035644457 -0.005254191 0.06534511 -0.059140626
0.13687105 0.0054452666 -0.039754633 -0.056567788 0.02025202 0.05986352 -0.049554918 -0.013962183
-0.07983382 0.11300212 -0.01161762 0.1574032 0.023987416 0.100643724 0.07946651 -0.055387035
-0.19585764 -0.036288492 0.031889852 0.09564937 0.0018728449 0.07187349 -0.120253064 -0.0137380585
0.1193755 0.062187135 0.019779868 -0.009261488 -0.19255838 -0.080531225 -0.037501812 0.01572884
-0.098205134 0.009904421 0.05623145 0.045845285 -0.0755474 -0.10768981 -0.104988664 -0.12813808
0.0056004208 0.04342418 0.014878098 -0.19378103 -0.072203964 0.08075261 -0.046298582 -0.28597042
00000000: 953b bbbd 76f4 fe3b d8e5 783e 4a15 7d3b
00000010: cc80 e73c 1b15 1a3c e5a9 93bd ad68 efbd
00000020: 4b75 09be b9cb 973d 47f7 a23c 9ca6 b6bd
00000030: 67c8 a8bd 3831 fc3d 9433 4c3d 1adc b0bd
00000040: ac4e 753c 5db1 e33c eb18 b53c 3f13 1d3e
00000050: 7d7c 15be 55fb 4bbc 2f43 7abd 8715 153e
00000060: a93c 05be 2c50 13be 669d abbd 009f 5c3e
00000070: e343 653d 4bac 8e3d a3e9 1ebd a56f 3cbc
00000080: 55dc e63d 6875 2b3d 9917 3d3c 62e4 af3d
00000090: 51c9 47be 741b d5bd 5035 efbd fe91 d43d
000000a0: 57b3 3fbc 2f49 a43d 85c2 f2bd 1a71 d83c
000000b0: 11df 163c dc48 513b ffdf 9ebd 64d4 ee3d
000000c0: fc5c 0b3e 98c6 11bd ee98 513d 768f 2ebe
000000d0: 5d0f 763d 262c aa3d 97f0 e8bd d844 12be
000000e0: 7f3a cbbd 930b 153d f830 c5bb 3da3 523d
000000f0: 8aa4 ec3d 9324 133d c497 35bd 7ffb 00be
00000100: 3603 573d 90ca 183d 5d71 5ebb ea87 c3bd
00000110: f766 10be 6988 02bd bdfb a0bd 1a30 18bd
00000120: 0741 1e3d 39aa 15bc b2da a6bd fafa 6abe
00000130: 00a3 33bd 62b7 be3d 9f4b 37be e76e 9abd
00000140: bd25 19bd 1b21 173d 664f e4bd a28f 873d
00000150: 516f d13d 1591 e43d ff2e 36be 7d00 6dbc
00000160: 5696 16bd e6a0 d9bc c3b5 3bbe 988f f43c
00000170: 588b a53d f20b eebc 4a5b 4ebd 67f5 71bd
00000180: c9cb 023d 8607 26be 7461 3abe dc30 e83c
00000190: 6f82 a2bd de64 9cbe 58e1 ac3c 77c7 923d
000001a0: b6d5 523e 3b74 06be 0426 fdbd 11d0 b33d
000001b0: 4e08 1abd 99f0 4a3e 8caf 173c 70bb 043d
000001c0: 940c d53d 01ba 6cbd 5b14 12be d20f 50be
000001d0: 68da 2dbe 7d1c 9ebd f436 5f3e 5efa 18be
000001e0: 96b4 32be d1fd ae3d 765c 32bd 7baf 0fbd
000001f0: 75bd 43be 158b 213c 71ee c5bd b3fe 09be
00000200: 7823 843b 8cc9 d13d b1e1 41bc b0d5 3a3d
00000210: 41bb 393d c70f 243e e2d2 b8bd 8744 a9bd
00000220: fd3c 16bd de47 763d dbb0 f3bb d11f 703d
00000230: db07 90be 248d 9dbd 3833 83bd b126 aebd
00000240: 7017 2fbb 81c2 a9bd c534 0cbe de3b 3cbe
00000250: bb92 8cbc 1228 2f3d 077f cdbc 3c42 453e
00000260: d366 c63d e34f ae3d 48de 46bd 2165 003e
00000270: d25b 53be 4e1c ab3d feda 4b3d 450e 7abd
00000280: 369a a63d 6e59 033e da23 803c eef3 debd
00000290: 3b2e 2d3e feab c23c 5340 833c b823 1d3d
000002a0: c994 e93c 9efa 2a3d bd63 1f3e 9859 183e
000002b0: c846 4ebd b54a e63c 53d4 1fbe 32db 13be
000002c0: fba4 57be 9983 f0bd 30b2 9bbd bb51 85bd
000002d0: ad42 1d3d ed5e 0fbe c031 6b3e 965c f0bc
000002e0: 2103 103d 547b 2dbd d076 fabd 5a38 cf3c
000002f0: d58f 803b 93fd 1d3e e0b1 2bbe e1e8 06be
00000300: c76d 223e 943c 22bd 78db 66be 8e70 4bbe
00000310: 69b7 293e c56f 293e ac9b acbd 2881 9abd
00000320: c88c 6a3d ca6e 843d dd21 4f3e 044f b2bc
00000330: ecff 113d 592b acbb a8d3 853d 713d 72bd
00000340: ed27 0c3e 356e b23b c1d5 22bd a0b3 67bd
00000350: 90e7 a53c 7333 753d 19fa 4abd a4c1 64bc
00000360: ea7f a3bd a86d e73d d457 3ebc 4e2e 213e
00000370: 4281 c43c 4c1e ce3d 56bf a23d 84dd 62bd
00000380: e88e 48be 3ea3 14bd ef9e 023d d1e3 c33d
00000390: 3f7a f53a 6932 933d 3d47 f6bd 9815 61bc
000003a0: 247b f43d f0b7 7e3d 6409 a23c 7fbd 17bc
000003b0: 062e 45be 8eed a4bd 809b 19bd c5d9 803c
000003c0: c61f c9bd 2746 223c f352 663d 44c8 3b3d
000003d0: 98b8 9abd 7a8c dcbd 4c04 d7bd a136 03be
000003e0: bc83 b73b 8edd 313d 44c3 733c 896e 46be
000003f0: acdf 93bd a061 a53d 95a3 3dbd b76a 92be

fc1/dense_bias f4 [120]
0.109184414 0.109047875 0.15294343 0.14029372 0.068919644 0.14431399 0.08259293 0.07871265
0.14086454 0.091694795 0.10573418 0.14920618 0.09637372 0.14832138 0.10104249 0.08683182
0.1352976 0.092623286 0.085201815 0.2015375 0.123870514 0.056798298 0.11450765 0.12027092
0.15413015 0.06300543 0.07999914 0.07094247 0.08470551 0.11959771 0.07443737 0.09663351
0.07876883 0.113828145 0.044307817 0.085792124 0.12016213 0.08369305 0.10553535 0.07339537
0.08066594 0.16757292 0.085514516 0.12739843 0.09641368 0.09962721 0.16220154 0.1
0.107992105 0.10724237 0.11100864 0.1332173 0.057377998 0.085490674 0.12477789 0.09602796
0.09355118 0.11786729 0.11906832 0.09174534 0.13699265 0.13592361 0.08466781 0.06429063
0.119091235 0.08824601 0.09877351 0.08832116 0.13823475 0.10646228 0.11926838 0.1224582
0.14950106 0.03860372 0.083855666 0.09016265 0.04565709 0.08629686 0.11269691 0.12039375
0.14528716 0.13356313 0.12780783 0.087870106 0.098504156 0.15319017 0.10269374 0.087197654
0.09767328 0.040167354 0.020399403 0.15168987 0.1052036 0.14953028 0.07805223 0.121281885
0.08812994 0.10290614 0.07647327 0.09289766 0.16260895 0.1356734 0.17845066 0.13875309
0.079635255 0.14167047 0.122994855 0.10733723 0.088138334 0.112918034 0.12930089 0.058370136
0.11829514 0.081477724 0.07153033 0.07831498 0.11923725 0.107814126 0.103010245 0.09108839
00000000: 149c df3d 7e54 df3d 349d 1c3e 28a9 0f3e
00000010: be25 8d3d 0cc7 133e 7b26 a93d 1934 a13d
00000020: cb3e 103e 7bca bb3d 298b d83d 81c9 183e
00000030: 965f c53d 8fe1 173e 5def ce3d e2d4 b13d
00000040: 748b 0a3e 47b1 bd3d 4a7e ae3d d95f 4e3e
00000050: d3af fd3d 55a5 683d fd82 ea3d 9a50 f63d
00000060: 4bd4 1d3e fe08 813d 97d6 a33d 494a 913d
00000070: 157a ad3d a5ef f43d 9f72 983d cae7 c53d
00000080: 8d51 a13d bb1e e93d 1d7c 353d c8b3 af3d
00000090: 9017 f63d 4367 ab3d eb22 d83d 5050 963d
000000a0: 2f34 a53d 3c98 2b3e 3c22 af3d bc74 023e
000000b0: 8974 c53d 5a09 cc3d 2918 263e cdcc cc3d
000000c0: f72a dd3d e3a1 db3d 7f58 e33d 1e6a 083e
000000d0: 3105 6b3d bc15 af3d 8d8b ff3d 4faa c43d
000000e0: c397 bf3d 6864 f13d 17da f33d fbe4 bb3d
000000f0: cd47 0c3e 8f2f 0b3e 5166 ad3d ceaa 833d
00000100: 1be6 f33d 53ba b43d c449 ca3d b9e1 b43d
00000110: 698d 0d3e e508 da3d fb42 f43d 5dcb fa3d
00000120: ce16 193e ef1e 1e3d 85bc ab3d 32a7 b83d
00000130: ee02 3b3d 68bc b03d a3cd e63d 0091 f63d
00000140: 28c6 143e c6c4 083e 0ee0 023e 3ef5 b33d
00000150: 8cbc c93d e2dd 1c3e 1851 d23d af94 b23d
00000160: ee08 c83d 8686 243d a61c a73c 9754 1b3e
00000170: fc74 d73d 771e 193e d9d9 9f3d a362 f83d
00000180: 787d b43d 74c0 d23d 059e 9c3d 2141 be3d
00000190: f682 263e f8ed 0a3e c5bb 363e 4a15 0e3e
000001a0: cf17 a33d 1012 113e bae4 fb3d 9fd3 db3d
000001b0: df81 b43d 9241 e73d 7467 043e 8615 6f3d
000001c0: b944 f23d cbdd a63d 7e7e 923d 9b63 a03d
000001d0: a932 f43d a7cd dc3d 09f7 d23d 8d8c ba3d

fc2/dense_weight (column-major) f4 [84, 120, 1, 1]
-0.22213098 -0.013626349 0.06600215 0.06556434 -0.11519159 -0.038219523 -0.16774754 0.12289477
0.046655852 -0.19873686 -0.051828634 0.09410934 0.13264321 0.034986928 -0.019919949 -0.026551176
-0.021842085 0.011423472 -0.1386585 0.14790396 0.060741227 -0.03452795 0.16045038 0.17765538
0.2875612 0.030133463 -0.066443644 0.033892967 -0.15253256 0.19152218 -0.07400551 0.108271904
-0.097443044 -0.15987621 0.07751433 -0.20038263 0.029785125 -0.08643934 0.2658074 -0.20356295
0.1583372 0.011182407 0.09971035 -0.19212711 0.09433655 -0.15700802 -0.0010380596 0.14262934
0.010704224 0.20950921 0.19542406 -0.057352003 -0.09997922 -0.078156106 -0.25318637 0.13976026
0.113079734 -0.03762278 -0.054018587 0.06574257 0.020826213 -0.0148880035 -0.053680632 0.18706048
-0.16200273 0.23823668 -0.10020234 0.27028987 0.057540685 -0.04071098 -0.1423663 -0.053510953
-0.09321965 -0.034303334 -0.15671444 0.19551556 0.31889835 0.005650657 0.12763536 -0.07406266
-0.08217836 -0.040708844 -0.041972518 -0.03536693 0.04135301 -0.1263132 -0.07580011 0.030030124
0.099608116 0.025681261 0.029837929 -0.106660746 0.08618109 -0.07981178 0.08905429 0.10627208
0.060929526 0.14787403 0.01987806 0.07025273 0.093195274 0.06004529 0.097018115 -0.05703428
-0.3143913 -0.25200883 -0.059683837 0.14770965 0.090723775 0.046265375 0.10509458 0.15291294
-0.076548144 0.07494154 -0.030514741 -0.09916753 0.08757057 -0.18383078 -0.07321355 -0.14519174
-0.016685039 -0.22893998 0.024793614 0.21776693 -0.037461884 0.09864071 -0.23003758 0.19051167
0.04881686 0.099476874 0.032568857 0.185439 0.26698655 -0.24618427 0.0037507673 -0.01885656
-0.0036274148 -0.1486914 -0.16880807 0.20150952 -0.16218235 0.117145285 -0.026936973 -0.13338032
-0.096371494 -0.009010572 -0.000594009 0.10372925 0.18234512 -0.18491842 -0.01363487 -0.33296138
-0.0071081566 0.12571913 -0.03208304 0.14712194 0.21028277 0.09149204 -0.029707614 -0.029509634
-0.07357871 0.19742753 0.061749797 -0.1804412 0.06699738 0.0040467526 0.12379589 0.070043385
0.011258784 -0.016145809 -0.13615613 -0.08740695 -0.08459589 -0.07608571 0.012841428 -0.2568289
-0.188723 0.10689506 0.11617035 -0.3155725 -0.09472548 0.08377355 -0.21937735 0.10137889
-0.055204153 0.022528501 -0.18144298 -0.038369324 0.045043986 0.15770853 0.040435616 -0.15255883
-0.0022300372 -0.054221738 0.0023623975 -0.027149402 0.14585835 0.2162806 0.052629966 0.03154305
-0.085806824 0.08108381 -0.0073663904 -0.038600314 -0.009570465 0.11587487 -0.00016765464 0.07218022
0.12819639 0.08279488 0.19784445 0.03862659 -0.08213863 -0.1591344 0.28042334 -0.10824244
-0.0520557 0.10298832 0.21338485 -0.24694484 -0.025288384 -0.10097805 0.05280809 -0.031849626
-0.049679957 0.20825295 0.063121475 0.04776303 0.11161768 -0.028395092 -0.1407405 0.0431552
0.17255661 0.058502533 0.0475247 -0.22616188 -0.12836547 0.11024972 0.3128519 0.019318417
0.19686031 0.07490879 -0.053149164 0.1657435 -0.0399894 0.14101906 -0.15585451 -0.022316828
-0.08749404 0.14899151 0.03318458 0.13705716 0.057471883 -0.089971654 0.042307697 0.14207867
00000000: 4e76 63be 0d41 5fbc 232c 873d 9946 863d
00000010: 91e9 ebbd 138c 1cbd 03c6 2bbe 41b0 fb3d
00000020: 351a 3f3d ad81 4bbe 434a 54bd 66bc c03d
00000030: 9fd3 073e 744e 0f3d 292f a3bc da81 d9bc
00000040: 2cee b2bc 8429 3b3c 7efc 0dbe 2374 173e
00000050: cbcb 783d 2e6d 0dbd 1b4d 243e 4beb 353e
00000060: 393b 933e 74da f63c 9b13 88bd 5ad3 0a3d
00000070: 7f31 1cbe 641e 443e 3390 97bd a9bd dd3d
00000080: 3890 c7bd 97b6 23be d5bf 9e3d 1b31 4dbe
00000090: efff f33c 1c07 b1bd e817 883e ce72 50be
000000a0: 2623 223e 6a36 373c f134 cc3d f8bc 44be
000000b0: 8533 c13d b6c6 20be 800f 88ba 6d0d 123e
000000c0: c560 2f3c 9589 563e 3f1d 483e efe9 6abd
000000d0: e8c1 ccbd 4f10 a0bd a5a1 81be 501d 0f3e
000000e0: 5996 e73d 581a 1abd 9842 5dbd 0aa4 863d
000000f0: bc9b aa3c d0ec 73bc 39e0 5bbd c88c 3f3e
00000100: 0be4 25be 51f4 733e e236 cdbd 6f63 8a3e
00000110: c8af 6b3d 8ec0 26bd 79c8 11be 4d2e 5bbd
00000120: f2e9 bebd a781 0cbd c079 20be 3b35 483e
00000130: a546 a33e 2629 b93b d8b2 023e 2aae 97bd
00000140: 214d a8bd 51be 26bd 60eb 2bbd eadc 10bd
00000150: c661 293d 3f58 01be 173d 9bbd bc01 f63c
00000160: 57ff cb3d 8261 d23c ac6e f43c f370 dabd
00000170: b67f b03d 5c74 a3bd 1862 b63d 2da5 d93d
00000180: 3d91 793d 4a6c 173e 50d7 a23c aae0 8f3d
00000190: 2add be3d 0df2 753d 6fb1 c63d c79c 69bd
000001a0: e5f7 a0be 4d07 81be 0a77 74bd 3341 173e
000001b0: 63cd b93d c380 3d3d d43b d73d 3695 1c3e
000001c0: 46c5 9cbd f37a 993d 0dfa f9bc 5918 cbbd
000001d0: 3358 b33d 233e 3cbe fcf0 95bd 25ad 14be
000001e0: 10af 88bc 3e6f 6abe fa1b cb3c 4bfe 5e3e
000001f0: a271 19bd 2404 ca3d f98e 6bbe 7e15 433e
00000200: 30f4 473d 88ba cb3d ec66 053d b9e3 3d3e
00000210: 76b2 883e bb17 7cbe 6fcf 753b 1379 9abc
00000220: ecb9 6dbb 8f42 18be 06dc 2cbe 8358 4e3e
00000230: 2113 26be dee9 ef3d edaa dcbc da94 08be
00000240: 6b5e c5bd 14a1 13bc 45b7 1bba 0070 d43d
00000250: aeb8 3a3e 415b 3dbe ca64 5fbc ea79 aabe
00000260: 8aeb e8bb 84bc 003e 8169 03bd 22a7 163e
00000270: 5e54 573e 2e60 bb3d 625d f3bc 30be f1bc
00000280: 6fb0 96bd 712a 4a3e 5bed 7c3d 94c5 38be
00000290: ec35 893d 9f9a 843b b388 fd3d e872 8f3d
000002a0: c376 383c 3744 84bc 836c 0bbe 6a02 b3bd
000002b0: 9c40 adbd d3d2 9bbd da64 523c 147f 83be
000002c0: 9a40 41be cceb da3d b8ea ed3d b892 a1be
000002d0: 6fff c1bd 7891 ab3d 75a4 60be bc9f cf3d
000002e0: c01d 62bd b18d b83c 30cc 39be 2729 1dbd
000002f0: 0b80 383d 587e 213e d19f 253d 6238 1cbe
00000300: d125 12bb 9d17 5ebd 74d2 1a3b 6c68 debc
00000310: e45b 153e a978 5d3e 8592 573d 4933 013d
00000320: 7dbb afbd 450f a63d c361 f1bb 5d1b 1ebd
00000330: 71cd 1cbc ce4f ed3d 73cc 2fb9 39d3 933d
00000340: ea45 033e 5d90 a93d bc97 4a3e ea36 1e3d
00000350: 4c38 a8bd 21f4 22be a693 8f3e 36ae ddbd
00000360: 5c38 55bd 8aeb d23d 8f81 5a3e 1cdf 7cbe
00000370: 9629 cfbc 94cd cebd 4c4d 583d c174 02bd
00000380: 367d 4bbd 4340 553e d545 813d 2ba3 433d
00000390: cf97 e43d d39c e8bc 471e 10be 82c3 303d
000003a0: aeb2 303e 5aa0 6f3d 43a9 423d fb96 67be
000003b0: 3d72 03be 9bca e13d 202e a03e a841 9e3c
000003c0: c095 493e c869 993d f0b2 59bd aab8 293e
000003d0: edcb 23bd 4d67 103e 5398 1fbe c8d1 b6bc
000003e0: 1330 b3bd 3b91 183e 8eec 073d b658 0c3e
000003f0: a367 6b3d 0f43 b8bd d64a 2d3d 127d 113e

fc2/dense_bias f4 [84]
0.10425834 0.1377083 0.10613883 0.124633946 0.09889982 0.13234164 0.11113161 0.053190812
0.09631262 0.093888655 0.12744969 0.076767206 0.1410066 0.11474354 0.088239454 0.15203124
0.054622825 0.091271535 0.10515958 0.1158515 0.15422747 0.12761225 0.10849872 0.07057199
0.038634837 0.1540653 0.12930238 0.15074682 0.14566524 0.08181787 0.08463892 0.121932656
0.16017881 0.12767245 0.074281454 0.14526638 0.0718932 0.084836565 0.078164466 0.09951287
0.10613271 0.16539957 0.13453811 0.09965471 0.084677935 0.06810477 0.08543209 0.14309832
0.08870979 0.111105636 0.1111123 0.032180842 0.11133974 0.08228994 0.12147423 0.09562984
0.16722141 0.19418219 0.15636452 0.09197493 0.12299187 0.100646846 0.0933312 0.105641596
0.066867664 0.12265427 0.15099591 0.13891813 0.074646235 0.1692744 0.10977854 0.12109226
0.091536924 0.13132553 0.1202153 0.17850854 0.14557135 0.10658209 0.11456953 0.097061336
0.13815498 0.07728429 0.16386692 0.13592704
00000000: 6685 d53d 6803 0d3e 515f d93d 1540 ff3d
00000010: fd8b ca3d 9184 073e f898 e33d 9cde 593d
00000020: 8d3f c53d b248 c03d 2c82 023e 2038 9d3d
00000030: 0964 103e a9fe ea3d e3b6 b43d 14ae 1b3e
00000040: 2fbc 5f3d 92ec ba3d e85d d73d 8d43 ed3d
00000050: ceed 1d3e c9ac 023e 9434 de3d 0c88 903d
00000060: 903f 1e3d 4bc3 1d3e d867 043e 605d 1a3e
00000070: 4529 153e 2190 a73d 2c57 ad3d d4b7 f93d
00000080: ea05 243e 91bc 023e e020 983d b6c0 143e
00000090: be3c 933d cbbe ad3d b114 a03d 67cd cb3d
000000a0: 1b5c d93d 815e 293e 5cc4 093e c517 cc3d
000000b0: a06b ad3d 837a 8b3d 05f7 ae3d 5e88 123e
000000c0: 7aad b53d 5a8b e33d d88e e33d 0fd0 033d
000000d0: 1706 e43d a187 a83d 7bc7 f83d 94d9 c33d
000000e0: 173c 2b3e b2d7 463e 051e 203e 5a5d bc3d
000000f0: 29e3 fb3d ef1f ce3d 6e24 bf3d 9f5a d83d
00000100: eaf1 883d 2932 fb3d ac9e 1a3e 8e40 0e3e
00000110: 20e0 983d 4556 2d3e 92d3 e03d 38ff f73d
00000120: b677 bb3d 337a 063e 7033 f63d f1ca 363e
00000130: a810 153e b647 da3d 6ea3 ea3d 18c8 c63d
00000140: 8078 0d3e 3a47 9e3d bbcc 273e 7530 0b3e

fc3/dense_weight (column-major) f4 [10, 84, 1, 1]
0.16023345 -0.12161388 0.043666985 -0.040906847 -0.06951574 -0.19432718 -0.09484412 0.05071745
0.18130453 -0.12702793 -0.034734845 -0.2274066 -0.22742674 -0.080283195 0.079372674 0.154793
-0.26565775 -0.025152244 -0.11820315 0.16274863 0.14214104 -0.18343094 -0.11522767 0.2589159
0.042802796 -0.27444622 -0.18540637 0.1410662 0.122330114 -0.1935542 -0.13226865 0.2449899
-0.1872369 -0.020467393 0.19531962 0.24653062 0.09675054 -0.19825898 0.05078948 -0.25102246
-0.33926287 0.0025410405 0.07096952 -0.013148377 -0.3487144 0.22084585 0.29007736 0.19895561
-0.052581113 -0.24466355 -0.026755955 0.10610045 0.14187634 -0.043669716 0.0026031928 -0.14093071
0.0303457 -0.25272575 0.07608043 0.044723265 0.08446799 -0.09943276 0.037249986 0.016741076
-0.36021802 0.110975765 -0.17107147 -0.18185538 0.08611253 -0.033242706 -0.5244647 -0.07095178
0.078011304 0.09128375 0.12531583 0.24149527 -0.15060756 0.16771081 -0.097068116 -0.115104206
-0.26165363 -0.39458722 -0.032801226 0.039207812 -0.21833575 0.24038292 0.27796236 0.05150104
-0.13441654 0.021971207 0.003580659 -0.16585267 0.33558607 0.17971835 -0.11776692 -0.4384422
-0.061389886 0.09755511 -0.39591694 0.18389337 0.26701427 0.027534602 -0.12109082 0.22504489
-0.20762782 -0.040578425 -0.025535353 0.07951657 0.045918357 -0.14949256 -0.08942796 0.07499138
0.065012805 0.16723417 0.07264944 0.14302157 0.1938987 -0.13735935 -0.27290785 0.02947638
0.087872714 0.025432061 -0.020229796 -0.36559328 0.16113219 -0.042186145 -0.020894827 0.15262496
-0.093692474 -0.17321841 -0.05938231 0.03460118 0.21966383 -0.3364732 0.07205758 0.012556945
0.063206755 -0.038289566 -0.023247456 0.0748168 -0.10480732 -0.09326363 0.1854799 -0.22349818
0.11128547 0.047304526 0.11068021 -0.16644403 -0.13125634 -0.018505713 0.03754067 -0.04857822
0.100821875 -0.20396897 0.15375952 -0.036337003 0.047416706 -0.3914003 0.02696532 -0.14167392
0.017540365 0.021211756 0.06791865 0.09623924 -0.36043072 -0.39515144 0.028468665 0.19553962
-0.1031288 -0.100172706 0.0073440988 0.31077167 -0.0822322 -0.042579345 -0.24546717 0.15491761
-0.1826376 -0.040933166 -0.4667089 0.049464658 0.16821739 0.08731871 0.0920913 0.17797618
-0.21172412 -0.028160237 0.26605797 -0.28228942 -0.020923717 -0.0036241265 -0.18284944 -0.32010302
0.124025926 0.1797464 0.10539159 -0.12899725 0.12175421 0.02642391 0.10579439 -0.12529999
0.06670359 0.037204213 -0.20067881 -0.02539617 -0.12472653 -0.15982893 -0.13959362 -0.041198097
0.13126229 0.034844782 -0.15496479 -0.020160077 -0.22156025 0.13916342 -0.1353382 -0.17452955
-0.40091977 0.19064125 0.10189752 0.12419583 0.1541082 -0.010899361 -0.40555814 -0.26298922
-0.4874608 0.047189955 0.027186256 0.28259066 -0.0059850593 -0.3443107 0.19475266 0.27959207
0.19536671 -0.17287011 0.046518344 0.031706687 0.0680637 0.15910399 -0.5504247 0.036314048
-0.2546813 0.06136739 0.15728663 0.18278496 -0.43335798 -0.25574172 -0.0955589 0.032547385
-0.05943177 -0.16321728 -0.07311584 -0.28414488 -0.007041648 0.19737343 -0.36168405 0.03452263
00000000: 3d14 243e b310 f9bd 27dc 323d f08d 27bd
00000010: 455e 8ebd b4fd 46be a23d c2bd 1abd 4f3d
00000020: e5a7 393e 9c13 02be 2046 0ebd 47dd 68be
00000030: 8ee2 68be 846b a4bd 248e a23d 0e82 1e3e
00000040: 4b04 88be 140c cebc 7e14 f2bd 94a7 263e
00000050: 6c8d 113e 52d5 3bbe 7cfc ebbd a090 843e
00000060: fc51 2f3d 3784 8cbe 2bdb 3dbe a873 103e
00000070: 3688 fa3d 1233 46be 6f71 07be a2de 7a3e
00000080: 08bb 3fbe 3cab a7bc de01 483e 8672 7c3e
00000090: 2625 c63d 6704 4bbe a108 503d 0486 80be
000000a0: ddb3 adbe 9687 263b 7858 913d 4a6c 57bc
000000b0: b28a b2be 6a25 623e 0585 943e 05bb 4b3e
000000c0: 4b5f 57bd 1589 7abe 4e2f dbbc 314b d93d
000000d0: 0848 113e 04df 32bd 549a 2a3b 2450 10be
000000e0: 8c97 f83c 4565 81be 0ed0 9b3d be2f 373d
000000f0: 8efd ac3d 67a3 cbbd 7193 183d 9524 893c
00000100: 7f6e b8be 4347 e33d 5c2d 2fbe 4c38 3abe
00000110: c45b b03d 8129 08bd 5243 06bf 2b4f 91bd
00000120: 64c4 9f3d faf2 ba3d cb52 003e 894a 773e
00000130: de38 1abe 62bc 2b3e a6cb c6bd c1bb ebbd
00000140: 77f7 85be 5607 cabe 945a 06bd 5f98 203d
00000150: 6893 5fbe f126 763e 1551 8e3e c1f2 523d
00000160: 7da4 09be f6fc b33c 7da9 6a3b 48d5 29be
00000170: f0d1 ab3e 1608 383e c82f f1bd 7f7b e0be
00000180: f673 7bbd f9ca c73d a0b5 cabe 8b4e 3c3e
00000190: 18b6 883e 3f90 e13c 77fe f7bd 2b72 663e
000001a0: 639c 54be 9035 26bd 842f d1bc 95d9 a23d
000001b0: e314 3c3d 9414 19be 0226 b7bd 1595 993d
000001c0: 6f25 853d 6f3f 2b3e 3bc9 943d 3f74 123e
000001d0: 618d 463e eea7 0cbe 94ba 8bbe 7378 f13c
000001e0: 9cf6 b33d e656 d03c f5b8 a5bc 0b2f bbbe
000001f0: d6ff 243e 61cb 2cbd a12b abbc b849 1c3e
00000200: d7e1 bfbd 2b60 31be dd3a 73bd f8b9 0d3d
00000210: 8eef 603e 3746 acbe ed92 933d a5bb 4d3c
00000220: 8b72 813d 85d5 1cbd 7371 bebc 8d39 993d
00000230: 38a5 d6bd 0101 bfbd 71ee 3d3e b5dc 64be
00000240: a3e9 e33d 64c2 413d 4eac e23d 4e70 2abe
00000250: 1068 06be 4b99 97bc 3fc4 193d f5f9 46bd
00000260: b37b ce3d 3edd 50be 2373 1d3e 1cd6 14bd
00000270: 0538 423d 9f65 c8be 60e6 dc3c f812 11be
00000280: d0b0 8f3c 47c4 ad3c ef18 8b3d 1419 c53d
00000290: 608a b8be 4a51 cabe 1e37 e93c 8a3b 483e
000002a0: 3135 d3bd 5927 cdbd c4a6 f03b 771d 9f3e
000002b0: 5b69 a8bd ae67 2ebd bf5b 7bbe b9a2 1e3e
000002c0: 5a05 3bbe 89a9 27bd 78f4 eebe 749b 4a3d
000002d0: 2e41 2c3e 27d4 b23d 5d9a bc3d 633f 363e
000002e0: 35ce 58be 4cb0 e6bc c038 883e 3d88 90be
000002f0: 3768 abbc c182 6dbb e23c 3bbe 8be4 a3be
00000300: 4e01 fe3d 710f 383e 8cd7 d73d db17 04be
00000310: 455a f93d f576 d83c bbaa d83d a44e 00be
00000320: e49b 883d 7263 183d bf7e 4dbe a10b d0bc
00000330: 9f70 ffbd 32aa 23be a1f1 0ebe 56bf 28bd
00000340: 9f69 063e 67b9 0e3d 17af 1ebe bf26 a5bc
00000350: b1e0 62be db80 0e3e 1996 0abe e0b7 32be
00000360: 5b45 cdbe 7637 433e a6af d03d 625a fe3d
00000370: 8ace 1d3e 3c93 32bc 51a5 cfbe 86a6 86be
00000380: 7694 f9be 414a 413d b6b5 de3c b9af 903e
00000390: 511e c4bb 7e49 b0be 3e6d 473e b126 8f3e
000003a0: 360e 483e dd04 31be 058a 3e3d dfde 013d
000003b0: fb64 8b3d 28ec 223e a2e8 0cbf 0abe 143d
000003c0: 9665 82be 5f5c 7b3d bf0f 213e fb2b 3b3e
000003d0: 19e1 ddbe 94f0 82be 62b4 c3bd 6850 053d
000003e0: ba6e 73bd 6e22 27be c2bd 95bd 707b 91be
000003f0: a0bd e6bb 431c 4a3e a72e b9be 9a67 0d3d

fc3/dense_bias f4 [10]
0.112913385 0.09514456 0.036035217 0.06904325 0.10038527 0.076214336 0.11933753 0.07918208
0.16004354 0.13140088
00000000: 223f e73d 27db c23d aa99 133d 8c66 8d3d
00000010: cb96 cd3d 4316 9c3d 3c67 f43d 372a a23d
00000020: 74e2 233e f48d 063e
